normal_compressed.tflite (tflite, 2560 bytes, 5 tensors)

sequential_1/dense_4/BiasAdd/ReadVariableOp f4 [3]
0	0x3e3c338b	0.18379037
1	0x3e4e9490	0.2017386
2	0xbdad80ed	-0.08471856

sequential_1/dense_3/BiasAdd/ReadVariableOp f4 [8]
0	0xbcca8500	-0.024721622
1	0x3e738f4b	0.2378513
2	0x3d8b5703	0.068037055
3	0xbdcaea21	-0.09907938
4	0x3dad6bb5	0.08467809
5	0x00000000	0.0
6	0x3e4fe9f6	0.20304093
7	0xbdcda91e	-0.10042022

sequential_1/dense_3/MatMul f4 [8, 10]
0	0x3da5c5d1	0.08094371
1	0xbce8356d	-0.028345788
2	0x3e361336	0.17780766
3	0x3eb7911e	0.35852903
4	0xbeb38f7b	-0.35070404
5	0xbea22ea1	-0.316762
6	0x3f298faf	0.6623487
7	0xbea0399f	-0.3129396
8	0x3e91a251	0.2844415
9	0x3d8ffc07	0.07030492
10	0xbedddeb4	-0.43333972
11	0x3f14d7dd	0.5814188
12	0x3e864a95	0.26228777
13	0x3ee2d353	0.44301853
14	0x3ed4d18f	0.4156613
15	0x3e9a7dcc	0.301741
16	0xbe06ecc2	-0.13176253
17	0x3c840b4d	0.01611867
18	0x3f00dd30	0.50337505
19	0x3e9d3371	0.3070331
20	0x3d9a80a8	0.075440705
21	0xbde752c3	-0.112950824
22	0x3f1b702f	0.60718054
23	0xbedae443	-0.42752275
24	0xbed3ca1e	-0.4136514
25	0x3effc5bc	0.49955547
26	0xbe7bbb7b	-0.24583237
27	0xbe0ee61d	-0.13954969
28	0xbe7f0cb9	-0.24907197
29	0xbe8edb20	-0.27901554
30	0x3e883115	0.26599947
31	0xbd4232ab	-0.047411602
32	0x3e8f89d8	0.28034854
33	0xbf0b6d70	-0.54463863
34	0xbe1fda80	-0.15610695
35	0x3e0433b2	0.12910345
36	0x3e9ff1ba	0.3123911
37	0x3efdb517	0.49552223
38	0x3f1e93ae	0.6194409
39	0xbf1cd4b5	-0.61262065
40	0x3dbf161c	0.09330389
41	0x3ec959eb	0.39326414
42	0x3eed5ee7	0.46361467
43	0x3f2c799d	0.6737307
44	0xbe7bc18c	-0.24585551
45	0xbe88964a	-0.2667716
46	0xbf5dcd94	-0.8664181
47	0xbee1dde9	-0.44114617
48	0xbe17473a	-0.14773265
49	0xbe573cc8	-0.2101928
50	0x3d3746b2	0.044745155
51	0xbf04831e	-0.5176257
52	0xbefb3756	-0.49065655
53	0xbed34843	-0.4126607
54	0xbe9491c9	-0.29017475
55	0x3e04f633	0.12984543
56	0xbd8a6f74	-0.06759539
57	0x3ebacecf	0.36485907
58	0x3edf7274	0.43642008
59	0xbe9bb64b	-0.30412516
60	0x3de8d27e	0.11368273
61	0xbd06416d	-0.03277724
62	0xbceabced	-0.02865454
63	0xbde347d3	-0.11097684
64	0xbe669cc8	-0.22520745
65	0x3e239e65	0.15978391
66	0xbe927593	-0.28605327
67	0x3eb2c379	0.3491476
68	0x3f4e5476	0.8059763
69	0x3ead4045	0.33838096
70	0xbd1cbe33	-0.038267326
71	0xbdcb6867	-0.099320225
72	0x3ec02beb	0.37533507
73	0x3e8d1d97	0.27561638
74	0xbe58169b	-0.21102373
75	0xbcad2a29	-0.021138268
76	0x3f31671b	0.6929795
77	0x3ea81908	0.32831597
78	0xbe21e916	-0.15811571
79	0xbca12c9f	-0.019674597

sequential_1/dense_4/MatMul f4 [3, 8]
0	0xbe40fc61	-0.18846275
1	0x3ed079ac	0.40717828
2	0x3d97d56b	0.07413753
3	0x3e35621b	0.17713206
4	0x3f283225	0.65701514
5	0xae4b7f93	-4.6270165e-11
6	0x3efb2673	0.49052772
7	0xbf201bd9	-0.6254249
8	0xbf10066d	-0.56259805
9	0x3e1d1342	0.15339378
10	0x3deb67ba	0.11494394
11	0xbd73c68b	-0.059515517
12	0xbe5d9e51	-0.21642424
13	0x3998c822	0.0002914081
14	0x3f0d4e41	0.5519753
15	0xbe721b9c	-0.23643345
16	0x3ea6c1a4	0.3256961
17	0x3d4d4f05	0.050124187
18	0xbdb7ee66	-0.08981018
19	0x3e443afd	0.19163127
20	0xbf102964	-0.5631316
21	0x355dcd52	8.2627696e-07
22	0x3df456b3	0.11930599
23	0x3f33f16d	0.7029026

sequential_1/dense_5/MatMul f4 [1, 3]
0	0xbe8d36aa	-0.27580768
1	0xbfdf9479	-1.7467185
2	0x3ecd0319	0.40041426
