normal_quantized_compressed.tflite (tflite, 3432 bytes, 2 tensors)

sequential_1/quant_dense_3/MatMul;sequential_1/quant_dense_3/LastValueQuant/FakeQuantWithMinMaxVars i1 [8, 10] scale=0.047244094 zero_point=0
0	0x02	0.09448819
1	0xff	-0.047244094
2	0x04	0.18897638
3	0x08	0.37795275
4	0xf9	-0.33070865
5	0xf9	-0.33070865
6	0x0e	0.6614173
7	0xf9	-0.33070865
8	0x06	0.28346455
9	0x01	0.047244094
10	0xf7	-0.42519686
11	0x0c	0.5669291
12	0x06	0.28346455
13	0x09	0.42519686
14	0x09	0.42519686
15	0x06	0.28346455
16	0xfd	-0.14173228
17	0x00	0.0
18	0x0b	0.51968503
19	0x06	0.28346455
20	0x02	0.09448819
21	0xfe	-0.09448819
22	0x0d	0.61417323
23	0xf7	-0.42519686
24	0xf7	-0.42519686
25	0x0b	0.51968503
26	0xfb	-0.23622048
27	0xfd	-0.14173228
28	0xfb	-0.23622048
29	0xfa	-0.28346455
30	0x06	0.28346455
31	0xff	-0.047244094
32	0x06	0.28346455
33	0xf4	-0.5669291
34	0xfd	-0.14173228
35	0x03	0.14173228
36	0x07	0.33070865
37	0x0a	0.47244096
38	0x0d	0.61417323
39	0xf3	-0.61417323
40	0x02	0.09448819
41	0x08	0.37795275
42	0x0a	0.47244096
43	0x0e	0.6614173
44	0xfb	-0.23622048
45	0xfa	-0.28346455
46	0xee	-0.8503937
47	0xf7	-0.42519686
48	0xfd	-0.14173228
49	0xfc	-0.18897638
50	0x01	0.047244094
51	0xf5	-0.51968503
52	0xf6	-0.47244096
53	0xf7	-0.42519686
54	0xfa	-0.28346455
55	0x03	0.14173228
56	0xff	-0.047244094
57	0x08	0.37795275
58	0x09	0.42519686
59	0xfa	-0.28346455
60	0x02	0.09448819
61	0xff	-0.047244094
62	0xff	-0.047244094
63	0xfe	-0.09448819
64	0xfb	-0.23622048
65	0x03	0.14173228
66	0xfa	-0.28346455
67	0x07	0.33070865
68	0x11	0.8031496
69	0x07	0.33070865
70	0xff	-0.047244094
71	0xfe	-0.09448819
72	0x08	0.37795275
73	0x06	0.28346455
74	0xfc	-0.18897638
75	0x00	0.0
76	0x0f	0.70866144
77	0x07	0.33070865
78	0xfd	-0.14173228
79	0x00	0.0

sequential_1/quant_dense_4/MatMul;sequential_1/quant_dense_4/LastValueQuant/FakeQuantWithMinMaxVars i1 [3, 8] scale=0.047244094 zero_point=0
0	0xfc	-0.18897638
1	0x09	0.42519686
2	0x02	0.09448819
3	0x04	0.18897638
4	0x0e	0.6614173
5	0x00	0.0
6	0x0a	0.47244096
7	0xf3	-0.61417323
8	0xf4	-0.5669291
9	0x03	0.14173228
10	0x02	0.09448819
11	0xff	-0.047244094
12	0xfb	-0.23622048
13	0x00	0.0
14	0x0c	0.5669291
15	0xfb	-0.23622048
16	0x07	0.33070865
17	0x01	0.047244094
18	0xfe	-0.09448819
19	0x04	0.18897638
20	0xf4	-0.5669291
21	0x00	0.0
22	0x03	0.14173228
23	0x0f	0.70866144
